…
_cache': True, 'classifier_dropout': None}, 'encoder_name': 'RTransformerEncoderModel', 'encoder_args': {'weight_decay': 0.001, 'lr': 0.001, 'hidden_size': 128, 'num_layers': 2, 'idcnn_num_block': 4, 'idcnn_kernel_size': 3}, 'classify_name': 'SoftmaxSeqClassifyModel', 'classify_args': {'weight_decay': 0.001, 'lr': 0.001, 'crf_lr': 0.1, 'num_classes': 9}}
2023-12-17 22:10:03,041:INFO:run: Start build train model....
2023-12-17 22:10:11,500:INFO:run: Model:
NERTokenClassification(
  (lm_model): BertLanguageModel(
    (bert): BertModel(
      (embeddings): BertEmbeddings(
        (word_embeddings): Embedding(21128, 768, padding_idx=0)
        (position_embeddings): Embedding(512, 768)
        (token_type_embeddings): Embedding(2, 768)
        (LayerNorm): LayerNorm((768,), eps=1e-12, elementwise_affine=True)
        (dropout): Dropout(p=0.1, inplace=False)
      )
      (encoder): BertEncoder(
        (layer): ModuleList(
          (0-11): 12 x BertLayer(
            (attention): BertAttention(
              (self): BertSelfAttention(
                (query): Linear(in_features=768, out_features=768, bias=True)
                (key): Linear(in_features=768, out_features=768, bias=True)
                (value): Linear(in_features=768, out_features=768, bias=True)
                (dropout): Dropout(p=0.1, inplace=False)
              )
              (output): BertSelfOutput(
                (dense): Linear(in_features=768, out_features=768, bias=True)
                (LayerNorm): LayerNorm((768,), eps=1e-12, elementwise_affine=True)
                (dropout): Dropout(p=0.1, inplace=False)
              )
            )
            (intermediate): BertIntermediate(
              (dense): Linear(in_features=768, out_features=3072, bias=True)
              (intermediate_act_fn): GELUActivation()
            )
            (output): BertOutput(
              (dense): Linear(in_features=3072, out_features=768, bias=True)
              (LayerNorm): LayerNorm((768,), eps=1e-12, elementwise_affine=True)
              (dropout): Dropout(p=0.1, inplace=False)
            )
          )
        )
      )
      (pooler): BertPooler(
        (dense): Linear(in_features=768, out_features=768, bias=True)
        (activation): Tanh()
      )
    )
  )
  (encoder_model): RTransformerEncoderModel(
    (r): RTransformer(
      (forward_net): Sequential(
        (0): Block(
          (layers): ModuleList(
            (0-2): 3 x LocalRNNLayer(
              (local_rnn): LocalRNN(
                (rnn): LSTM(768, 768, batch_first=True)
                (output): Sequential(
                  (0): Linear(in_features=768, out_features=768, bias=True)
                  (1): ReLU()
                )
              )
              (connection): SublayerConnection(
                (norm): LayerNorm()
                (dropout): Dropout(p=0.1, inplace=False)
              )
            )
          )
          (connections): ModuleList(
            (0-1): 2 x SublayerConnection(
              (norm): LayerNorm()
              (dropout): Dropout(p=0.1, inplace=False)
            )
          )
          (pooling): MHPooling(
            (linears): ModuleList(
              (0-3): 4 x Linear(in_features=768, out_features=768, bias=True)
            )
            (dropout): Dropout(p=0.1, inplace=False)
          )
          (feed_forward): PositionwiseFeedForward(
            (w_1): Linear(in_features=768, out_features=3072, bias=True)
            (w_2): Linear(in_features=3072, out_features=768, bias=True)
            (dropout): Dropout(p=0.1, inplace=False)
          )
        )
        (1): Block(
          (layers): ModuleList(
            (0-2): 3 x LocalRNNLayer(
              (local_rnn): LocalRNN(
                (rnn): LSTM(768, 768, batch_first=True)
                (output): Sequential(
                  (0): Linear(in_features=768, out_features=768, bias=True)
                  (1): ReLU()
                )
              )
              (connection): SublayerConnection(
                (norm): LayerNorm()
                (dropout): Dropout(p=0.1, inplace=False)
              )
            )
          )
          (connections): ModuleList(
            (0-1): 2 x SublayerConnection(
              (norm): LayerNorm()
              (dropout): Dropout(p=0.1, inplace=False)
            )
          )
          (pooling): MHPooling(
            (linears): ModuleList(
              (0-3): 4 x Linear(in_features=768, out_features=768, bias=True)
            )
            (dropout): Dropout(p=0.1, inplace=False)
          )
          (feed_forward): PositionwiseFeedForward(
            (w_1): Linear(in_features=768, out_features=3072, bias=True)
            (w_2): Linear(in_features=3072, out_features=768, bias=True)
            (dropout): Dropout(p=0.1, inplace=False)
          )
        )
      )
    )
  )
  (classify_model): SoftmaxSeqClassifyModel(
    (fc_layer): Linear(in_features=768, out_features=9, bias=True)
    (loss_fn): CrossEntropyLoss()
  )
)
2023-12-17 22:10:16,948:INFO:run: Start build optimizer....
2023-12-17 22:10:16,950:INFO:run: Starting training for 100 epochs.
2023-12-17 22:10:17,446:INFO:train_and_evaluate: Epoch 1/100
2023-12-17 22:10:19,302:INFO:update: 当前评估指标变差:0.2683578104138852 -- 0.24543501611170784 -- 1
2023-12-17 22:10:28,033:INFO:update: 当前评估指标变差:0.9228571428571428 -- 0.8919089759797725 -- 1
…
